Benchmark for 10 epochs
_________________________________________________________________
Layer (type)                 Output Shape              Param #
=================================================================
input_1 (InputLayer)         (None, 28, 28, 1)         0
_________________________________________________________________
conv2d_3 (Conv2D)            (None, 14, 14, 32)        320
_________________________________________________________________
conv2d_4 (Conv2D)            (None, 7, 7, 32)          9248
_________________________________________________________________
flatten_2 (Flatten)          (None, 1568)              0
_________________________________________________________________
dense_3 (Dense)              (None, 10)                15690
=================================================================
Total params: 25,258
Trainable params: 25,258
Non-trainable params: 0
_________________________________________________________________
_________________________________________________________________
Layer (type)                 Output Shape              Param #
=================================================================
input_2 (InputLayer)         (None, 10)                0
_________________________________________________________________
dense_4 (Dense)              (None, 1568)              17248
_________________________________________________________________
reshape_1 (Reshape)          (None, 7, 7, 32)          0
_________________________________________________________________
conv2d_transpose_1 (Conv2DTr (None, 14, 14, 32)        9248
_________________________________________________________________
conv2d_transpose_2 (Conv2DTr (None, 28, 28, 32)        9248
_________________________________________________________________
conv2d_transpose_3 (Conv2DTr (None, 28, 28, 1)         289
_________________________________________________________________
activation_1 (Activation)    (None, 28, 28, 1)         0
=================================================================
Total params: 36,033
Trainable params: 36,033
Non-trainable params: 0
_________________________________________________________________
_________________________________________________________________
Layer (type)                 Output Shape              Param #
=================================================================
input_1 (InputLayer)         (None, 28, 28, 1)         0
_________________________________________________________________
model_1 (Model)              (None, 10)                25258
_________________________________________________________________
decoder (Model)              (None, 28, 28, 1)         36033
=================================================================
Total params: 61,291
Trainable params: 61,291
Non-trainable params: 0
Classifier score: 87.69
SSIM score: 81.52

Increasing latent dimensions from 10 to 20

Classifier score: 93.00
SSIM score: 89.82

20 to 30. Will keep increasing
Classifier score: 94.91
SSIM score: 92.64
30 to 40
Classifier score: 95.35
SSIM score: 94.06
40 to 100
…
